M2_tetris_epoch68_score192800.pt (torch, 909895 bytes, 9 tensors)

weight f4 [32, 1, 5, 5]
000000 eb ed c5 3d 8d 34 5b 3e 56 b6 89 be 18 89 85 3e
       0.0966452 0.21406765 -0.26896924 0.26081157
000010 a8 99 93 3e 13 b5 75 bd 33 29 0e be 88 34 07 bd
       0.28828168 -0.05998714 -0.13882904 -0.033009082
000020 a0 de 32 bd fd ab 52 3c 5d f4 05 3d 18 a2 8a be
       -0.043669343 0.012858388 0.032703746 -0.27076793
000030 2e 1b 9e bd f2 73 91 bd 68 00 d6 bd fe cc 23 bd
       -0.07720028 -0.07102193 -0.10449296 -0.039990418
000040 f6 7f f1 3b 0b ba f7 3c 9c 7b 6a be 19 35 42 3e
       0.0073699905 0.03024008 -0.22898716 0.18965568
000050 b6 58 c4 bd e8 ba b5 bd 42 1b 5a bd 37 fe 0c bd
       -0.09587233 -0.0887354 -0.05324865 -0.034422126
000060 5d a6 6c be 4d ab ec 3d 24 29 00 bd 50 0b 00 3e
       -0.23110338 0.115561105 -0.031289235 0.12504315
000070 92 d0 6b be e4 23 89 be b7 0a 0e 3e 2c 03 19 bd
       -0.23028782 -0.26785195 0.13871275 -0.03735654
000080 7f f1 06 3d 8a 56 92 be 45 09 95 3d 22 86 6e be
       0.032945152 -0.2858165 0.07277159 -0.23293355
000090 f6 87 f6 3c 66 3f 28 be 2a 71 3d 3e 89 c6 e8 3e
       0.030094128 -0.16430435 0.185002 0.4546397
0000a0 80 a5 3b bd 52 0f fc 3c 8d ba 1a be 5c 08 f5 bc
       -0.04581213 0.030769024 -0.15110226 -0.029911213
0000b0 26 33 db be 02 ef 81 be 11 d2 fb 3d 1d 78 65 be
       -0.4281246 -0.2537766 0.12295926 -0.22409101
0000c0 b8 12 35 3d 1a be b9 bd 44 02 7a 3c f7 40 93 3d
       0.044207305 -0.09069462 0.015259329 0.071901254
0000d0 32 ee 46 bd 26 6f a1 bd c5 41 8e 3d 8d 58 bb bb
       -0.048567005 -0.07882528 0.06946138 -0.005717343
0000e0 da a1 59 bc 4a 49 74 be 8c 32 e1 bd 5e b1 7b 3e
       -0.013283217 -0.23856083 -0.10995969 0.24579379
0000f0 ac 8c 7a 3e dd 7e 0e 3e 01 51 c7 bd 3b a6 ba be
       0.24467725 0.13915582 -0.09732247 -0.3645495
000100 68 62 e2 3d 14 df 5d 3d bf 96 27 be 30 66 d8 3d
       0.11053926 0.054167822 -0.16366099 0.10566366
000110 01 59 84 be c4 08 9a bc 39 ef 3c bd 45 66 80 be
       -0.25849155 -0.018803008 -0.046126578 -0.25078025
000120 d1 49 be bb 96 4d f9 3c ad d6 78 bc 69 bc e0 bd
       -0.0058071394 0.030432504 -0.015187901 -0.109734364
000130 06 6a 2b bf 22 ec c6 be e8 e7 95 be 57 20 11 be
       -0.66958654 -0.3885203 -0.29278493 -0.14172493
000140 c6 b3 90 bd 2b 0a 80 bf c0 12 a3 bd b9 47 26 3e
       -0.07065539 -1.0003103 -0.07962561 0.16238298
000150 03 37 71 bd 5d 87 8e 3d 14 c8 8b bf 8a a4 94 3d
       -0.058890354 0.06959412 -1.0920434 0.07257946
000160 22 a2 dd 3d 6d dd c3 3d a4 dd 59 3c 3f 44 8b bf
       0.1082194 0.09563718 0.013297472 -1.0880202
000170 47 20 96 3d ff 1c e3 3d 9d 05 0c 3e 38 3b 3a 3e
       0.07330375 0.11089515 0.13674016 0.18186653
000180 7d fd 9e be 3f f3 d3 3d 98 e9 c6 3d 83 04 ac bc
       -0.3105277 0.1034913 0.09712523 -0.020998245
000190 ee 36 50 3e 20 72 80 3e 61 f9 06 be 64 7b 12 3a
       0.20333454 0.2508707 -0.13181068 0.00055878446
0001a0 25 9f a3 bd 80 87 ff 3d 5d 2e 1a 3e 4a 4b fa bd
       -0.07989339 0.124770164 0.15056749 -0.122213915
0001b0 c9 95 29 3e 41 18 94 3e 54 7f be bd bd 09 a3 3d
       0.16561045 0.28924754 -0.0930163 0.07960842
0001c0 3d 50 31 be 56 b0 9f be 14 25 86 bd 6c 79 8e 3d
       -0.17315765 -0.3118922 -0.06550041 0.06956753
0001d0 a6 72 15 be 3f 57 38 be 68 54 06 3c 03 c1 b7 be
       -0.14594516 -0.18002032 0.008198835 -0.35889444
0001e0 f1 2a 66 3d ad a3 5f bd f8 33 fb bd cc 8a 5c be
       0.056193296 -0.054599453 -0.122657716 -0.21537322
0001f0 bc 4c b1 bd ce af 5d be 8b 55 42 3d 17 89 fc bd
       -0.08657214 -0.21649095 0.04744486 -0.12330835
000200 35 6c 2b be c4 db 02 bd 43 70 5b be af 11 43 3d
       -0.16740496 -0.031947866 -0.21429543 0.047624286
000210 a9 03 db bc fc 84 b1 bd 68 8c a4 3d d6 1d 03 be
       -0.026735144 -0.08667943 0.08034593 -0.1280435
000220 2c 85 c3 bc b1 c4 3e bd f1 fd 88 be d3 5e 00 3e
       -0.023867212 -0.0465743 -0.26756242 0.12536173
000230 bb a7 18 3e 6c 39 15 be f1 aa c0 be 2d ed 3c be
       0.14907734 -0.14572686 -0.37630418 -0.1844985
000240 8c 07 72 3e 40 7e 87 bd 8e a6 86 bd 27 50 51 bd
       0.23635691 -0.06615877 -0.065747365 -0.05110183
000250 aa 69 89 bc 97 5a 0d bf 3c 6f 9d be 5f 20 83 be
       -0.016774017 -0.55216354 -0.30748928 -0.25610635
000260 e3 8a 49 be 7c ef 2a be 80 fe 9a be a4 1a c9 be
       -0.19681887 -0.16692919 -0.30272293 -0.39278138
000270 20 11 e1 be 0b 94 03 3d db 25 a0 be 6a be 4e be
       -0.43958378 0.032123607 -0.3127888 -0.20189825
000280 6f 48 d9 be ca 99 92 be 7f 91 ba bd 7c f0 b0 be
       -0.42438075 -0.28632957 -0.091097824 -0.34558475
000290 fe a7 ac be 2e 97 d1 be 53 f8 da be 9f 6e 99 bd
       -0.33721918 -0.40935653 -0.4276758 -0.074918024
0002a0 4c 6d 2f bc 67 03 f6 be 91 b6 9e be 94 c6 9f bd
       -0.010707211 -0.4804947 -0.30998662 -0.07801548
0002b0 e9 08 62 3e 74 36 fb 3d 1d b7 2e bd a5 8a 1e be
       0.22073711 0.122662455 -0.0426551 -0.15482576
0002c0 33 89 cb be ee 09 cc be 40 48 98 3e c3 e3 c6 3d
       -0.39753112 -0.39851326 0.29742622 0.09711411
0002d0 14 3c 1a bc 15 c3 0e bf 99 ce fd bd 98 b3 6f be
       -0.009413738 -0.5576642 -0.12392921 -0.23408353
0002e0 4a 89 a3 bd ef 66 c6 3d d3 72 f7 3d 17 3a 5c bd
       -0.0798517 0.09687602 0.12082448 -0.053766336
0002f0 41 7c 53 3d e2 12 8a 3e af 50 15 be de 03 c7 be
       0.05163217 0.2696753 -0.1458156 -0.38870138
000300 97 04 94 3e 8a 25 03 be 42 b7 60 be ae 86 18 bd
       0.28909752 -0.12807289 -0.21944907 -0.037237816
000310 92 b7 6c bc c7 3a a5 be 17 c5 e9 3a 96 93 5e bd
       -0.014448063 -0.32271406 0.0017835227 -0.054339968
000320 ae 3e aa 3d e5 e9 14 3b b3 27 1f bd 49 5d bc 3d
       0.083127365 0.002272242 -0.03885622 0.0919748
000330 ba 80 03 bd 37 f5 24 3e cd e8 c3 3c 95 5a 17 3e
       -0.032105185 0.16109167 0.023914719 0.14780648
000340 10 c5 ca bd 90 a1 8c 3c e3 f2 d3 be b8 d0 7c 3e
       -0.09900868 0.017166883 -0.41396245 0.24688995
000350 3e 6b 2a be bd 71 98 3d aa b1 35 3e fb c1 76 be
       -0.16642472 0.07443569 0.17743555 -0.24097435
000360 19 c4 67 3e 73 ec 3d be e9 8b cd bd b1 19 98 bd
       0.22633399 -0.1854723 -0.10036451 -0.07426775
000370 d2 cc 4d 3d 79 85 1b bf ef 3a 76 bd cc d4 2c 3e
       0.05024416 -0.6075054 -0.060114797 0.1687805
000380 ea d8 26 3d 5c ae f0 bc 9c 1f 92 bc c6 9e 1c bc
       0.04073421 -0.029380016 -0.017837338 -0.009559339
000390 2c 30 5c 3d dd 5d 83 bd c0 78 a6 3d 31 93 dd bd
       0.053756878 -0.064143874 0.081285 -0.1081909
0003a0 1e 61 6b 3d 54 6e 03 be 04 0b 3c be cc 0c b3 bd
       0.057465665 -0.12835056 -0.18363577 -0.08742675
0003b0 f0 e0 9e 3d 0b 93 7e 3d 4e 75 65 3d 9a 0a 5b be
       0.07757747 0.06215195 0.056020074 -0.21390763
0003c0 73 75 1b 3e 8f bf f0 3c be e1 10 3e 5a 53 ce 3d
       0.15181522 0.029388217 0.14148614 0.10074492
0003d0 9c c4 ba 3d 1f 6e bc 3d ff c9 e4 bd 43 22 48 3e
       0.091195315 0.092006914 -0.1117134 0.1954432
0003e0 f8 27 29 3e 90 88 35 3d 31 b6 e7 3c fe a1 69 be
       0.16519153 0.04431969 0.028285118 -0.22815701
0003f0 b4 a6 8e bc 05 8b 14 be d2 f8 9e ba ca 82 01 3e
       -0.017413475 -0.14506157 -0.0012128598 0.12647548

weight f4 [32, 32, 4, 4]
000000 cc 1d 49 be 6b 9e d3 3d e3 01 d4 bd 26 52 5c bd
       -0.19640273 0.1033295 -0.10351922 -0.05378928
000010 c6 aa 30 be b1 c6 cc bd 3b 8c a0 be ae 29 13 bd
       -0.17252645 -0.09998835 -0.31356987 -0.03592842
000020 fe 3c 0b be 18 14 86 be 6c 3d a7 bd 5f cc 82 be
       -0.13597485 -0.26187205 -0.08166012 -0.25546548
000030 23 a3 2a be f1 ae 21 be 29 6c de bd 49 76 5d bd
       -0.16663794 -0.15789391 -0.10860474 -0.054067884
000040 0a a1 2a be d0 de e3 be 98 f6 a0 bc 11 14 9e be
       -0.16662994 -0.4450593 -0.019648835 -0.30874684
000050 e9 02 92 be 15 20 bf be ff bf d7 3c c0 e8 80 bd
       -0.28517845 -0.37329164 0.026336668 -0.062943935
000060 06 a1 2b bd 80 27 c5 be 70 6d d4 3d ef a7 90 be
       -0.04190161 -0.385067 0.10372436 -0.28253123
000070 fa e1 da bd 28 cb da bd a7 b3 54 3d af f6 95 be
       -0.10687633 -0.1068328 0.051929142 -0.29289767
000080 ba b5 88 bd 57 7f d3 3d 84 75 bc 3d 8b 49 20 3c
       -0.066752866 0.103270225 0.09202102 0.009783159
000090 a0 43 a3 bd 19 c7 44 be 92 c3 eb bd 09 bf 27 be
       -0.07971883 -0.19216575 -0.115119115 -0.16381468
0000a0 a5 e6 3e be fa c1 84 bd 48 2d 46 be f7 00 86 be
       -0.18642671 -0.064823106 -0.19353211 -0.2617261
0000b0 88 40 19 be c3 9a 0e be 53 4d 21 bd b4 4d 56 be
       -0.14966023 -0.13926224 -0.039380383 -0.20928079
0000c0 d6 e6 35 be 29 b6 84 3d f2 b6 51 bd c6 7a ce bc
       -0.17763838 0.06480057 -0.05119986 -0.025205027
0000d0 e9 42 b1 bd c4 82 a6 3d 25 19 f8 bd 58 7d 98 3d
       -0.0865534 0.0813041 -0.12114171 0.074457824
0000e0 80 97 62 be e9 f2 22 3e 83 74 b1 be 82 c6 4f be
       -0.22128105 0.15912975 -0.34659204 -0.20290568
0000f0 39 61 06 bf 5c b0 8e 3e b2 00 bf be 51 b2 68 be
       -0.524921 0.27868927 -0.37305218 -0.22724272
000100 f9 7e 9f 3d 6c 75 99 bd 8b ea f2 bd f7 2e c6 bc
       0.0778789 -0.074930996 -0.11861142 -0.024192316
000110 c9 c1 02 be 34 9d 58 be 21 bd 86 be c7 27 80 be
       -0.12769236 -0.21153718 -0.2631617 -0.25030348
000120 b5 79 82 3d 67 0b b2 bd 86 02 cc bd 6e e3 01 be
       0.0637087 -0.08693581 -0.09961419 -0.12684414
000130 64 ab 9e bd e4 d2 2f be e5 21 cb be b4 5e 29 be
       -0.07747534 -0.17170292 -0.39674297 -0.16540033
000140 36 0b 0b 3e 71 c4 1e be 9c 18 59 be 8d 02 90 bc
       0.13578495 -0.15504624 -0.21200794 -0.017579341
000150 7f a2 23 be 22 84 dd bd d0 e1 a6 bd 58 08 72 be
       -0.15979956 -0.10816218 -0.08148539 -0.23635995
000160 7c b3 f3 bd 01 34 af be f7 da 99 bd 82 19 3e be
       -0.11899468 -0.34219363 -0.07512467 -0.18564418
000170 72 e4 79 bd 2c b1 e8 bd b4 10 a8 bd cc f6 b9 bd
       -0.061008878 -0.11361918 -0.08206311 -0.09080276
000180 db fe 25 be e9 d6 86 3d 0a 81 f0 bc 92 04 84 bd
       -0.16210501 0.065839596 -0.029358406 -0.06446184
000190 73 0c 89 be 2d a1 0e 3e 54 72 36 3d 1d 2c 35 3e
       -0.2676731 0.13928671 0.044542626 0.17692609
0001a0 b2 9f 68 be 2a 5e d5 3d 68 29 52 be b2 ce 51 be
       -0.22717169 0.10418351 -0.20523608 -0.20489004
0001b0 47 b3 0d bd 3f 58 64 3e 0a a6 5a be 9b ea e8 bd
       -0.0345948 0.22299288 -0.21352401 -0.113728724
0001c0 a7 f8 33 be 79 29 02 be 54 0b f9 3d 62 4b fc 3c
       -0.17575322 -0.12711133 0.12160364 0.030797664
0001d0 96 b5 90 bd d7 9a 85 be 05 c9 af 3e 7e b0 88 bc
       -0.07065885 -0.26094696 0.34333053 -0.01668572
0001e0 7e 60 7b be 94 8c 21 be 30 a4 8e be 0f ef ba bd
       -0.24548528 -0.15776283 -0.2785964 -0.09127628
0001f0 16 4e 31 bd 32 3c 62 bd d4 09 8c bd 44 d6 53 be
       -0.04328736 -0.055233188 -0.06837812 -0.20687205
000200 b3 78 c8 bd 88 00 94 3d 1e 52 18 3e 3c d7 a3 3d
       -0.097886465 0.07226664 0.14875075 0.08000037
000210 d2 f3 96 be dd ab f6 3d 13 a4 0f 3d e7 45 82 3e
       -0.29482895 0.12044499 0.035068583 0.25443956
000220 a6 f6 80 be ad 90 1a 3e 74 d8 5a be 74 0c 56 be
       -0.25188178 0.15094252 -0.21371633 -0.20903188
000230 b0 3c d6 be 93 cb c1 bd 0f 6b e5 be 06 bd 68 bd
       -0.41843176 -0.09462657 -0.44808242 -0.05682089
000240 6e 34 17 be ed cf e2 3d 75 c2 84 3d 70 61 07 3e
       -0.14766094 0.11074815 0.06482402 0.13220763
000250 38 8e 08 be 1c 95 fb 3d 5a 6b 9c 3d 6d 44 da 3d
       -0.13335502 0.122843 0.07637663 0.106575824
000260 91 9d a9 bd 3f cf 20 3e e5 0f ed 3b a4 29 35 3d
       -0.082820065 0.15704058 0.007234561 0.044229165
000270 38 ba e7 bd e5 e3 87 3d 35 29 12 bd 26 c6 81 3a
       -0.11314815 0.06635264 -0.03568383 0.0009900972
000280 b5 37 17 be 0c a0 a0 bd 8e 1d fa 3d 00 f8 3f be
       -0.14767344 -0.078430265 0.12212668 -0.18746948
000290 42 07 d5 3d 51 f3 96 3c b7 8c 93 3e f3 e0 f7 3d
       0.10401775 0.01842657 0.28818294 0.121034525
0002a0 14 f8 a2 bc 6e 5e f3 3d b7 23 89 bc ee 34 20 3c
       -0.019893683 0.118832454 -0.016740663 0.009778244
0002b0 e5 60 33 bd 4f 3d fb 3d c7 69 c2 bd 93 f1 8b bd
       -0.043793578 0.12267553 -0.09492832 -0.06833186
0002c0 69 34 c1 3d 84 f4 06 3e 5c 1b ff b9 7d 13 e7 3d
       0.094338246 0.13179213 -0.00048657774 0.11283014
0002d0 96 48 0e be a2 1c 43 bd b6 05 59 3e e1 f8 c1 bd
       -0.13894877 -0.04763473 0.21193585 -0.09471298
0002e0 96 9f 77 bd 44 39 4f be b1 8a 18 be 59 b4 18 bd
       -0.060454927 -0.20236689 -0.14896657 -0.037281368
0002f0 eb d5 ef bd 03 67 67 bd 0d f1 01 3e 8f d4 65 bd
       -0.117107235 -0.056494724 0.1268961 -0.056110915
000300 dc 82 26 be ac d4 43 3d 27 ff 13 be 39 b0 72 bd
       -0.16260856 0.04781024 -0.14452802 -0.05925009
000310 9a 27 b6 be 19 4e 8e 3c 89 61 b0 bd 95 56 52 be
       -0.3557709 0.017371224 -0.08612353 -0.20540841
000320 4a a7 83 be 57 92 24 3e 8d 1d 9c be 05 b8 1b bc
       -0.2571357 0.16071449 -0.30491295 -0.009504323
000330 86 fe 97 be e4 02 1e 3e 4e e4 c1 be 90 4c 0c be
       -0.29686373 0.1543079 -0.37869495 -0.13701081
000340 4d 3e 93 bb 47 5f fe bc 58 70 92 bd 06 0e 04 3e
       -0.004493511 -0.031051291 -0.07150334 0.12895975
000350 a3 b4 07 3e 65 4f 9d 3d 3b 7b 24 bd 74 15 41 be
       0.13252501 0.07681159 -0.040156584 -0.1885584
000360 25 6b a2 be c7 73 c6 bd a6 93 e7 bc a9 64 40 3d
       -0.3172237 -0.096900515 -0.028268646 0.046970997
000370 20 95 7e bd d2 ea 11 3d 38 a4 07 be 08 5d e2 3b
       -0.062153935 0.035624333 -0.13246238 0.006908063
000380 e1 d3 f0 bd 48 04 08 3d 0f 41 a9 bd a0 43 17 be
       -0.11759163 0.033207208 -0.08264362 -0.1477189
000390 4a 06 a3 bd 6a 6c 1f be 0e fc 0c be f3 ec 2d be
       -0.07960184 -0.155687 -0.13768026 -0.1698492
0003a0 eb 3e 97 3d cb 22 2c be 58 4c 07 bd b5 8b 3f be
       0.073850475 -0.16810147 -0.03303179 -0.18705638
0003b0 0a b6 a0 be c7 22 38 bd 8c 8d 07 bd 83 0c 39 be
       -0.31388885 -0.04495504 -0.033093974 -0.18071179
0003c0 f9 bf 64 be 97 6f 1e bd 95 ed e9 bc 04 42 1b bb
       -0.22338857 -0.03868064 -0.02855567 -0.0023690471
0003d0 ab 87 54 bd c9 55 74 be e2 ee 96 bd f2 5b 2d 3d
       -0.051887196 -0.2386085 -0.07369782 0.042324014
0003e0 2f 73 54 be d8 ac 23 bf ec 17 d2 bd 76 97 4b 3d
       -0.20747064 -0.63935614 -0.10258469 0.04970499
0003f0 c1 a9 66 be 97 32 19 bf 07 c3 9c be fa db 79 be
       -0.22525693 -0.5984282 -0.30617544 -0.2440032

weight f4 [32, 32, 5, 5]
000000 96 a9 a9 3d 78 ab 30 bd de 83 48 be 56 08 14 3e
       0.08284299 -0.043132275 -0.19581553 0.14456305
000010 96 ee de bc 1b 0c 77 3d 2c 94 a3 bd 02 b2 93 bd
       -0.027213376 0.06031428 -0.07987246 -0.07211687
000020 bb 83 32 bd 1b 0f c7 3d 38 b6 f2 bd 5c a4 d1 b8
       -0.04358266 0.09719678 -0.11851162 -9.996511e-05
000030 3e 36 c5 3d b3 80 85 be f4 9b 2b 3c 78 c5 89 3d
       0.096294865 -0.26074752 0.010474194 0.06727117
000040 2f d1 43 bd 80 32 ba be 20 d3 84 be d0 52 4e 3d
       -0.047806915 -0.36366653 -0.25942326 0.050371945
000050 90 9a a3 3d 26 3e 14 be 5a 7f 36 be 2a 99 80 3d
       0.07988465 -0.14476833 -0.17822018 0.06279214
000060 b1 0c 27 bc e3 b4 17 bd a6 43 c3 ba 4e af 07 be
       -0.010195897 -0.03703774 -0.001489748 -0.13250467
000070 49 56 eb bd 50 73 af 3d 6b 8e 4c 3b 92 89 dc bd
       -0.11491067 0.08566916 0.0031212817 -0.10768427
000080 f5 43 1c be 1a a8 e8 bb db 98 4c 3e 68 bb bb bd
       -0.15260299 -0.0071001174 0.19980185 -0.09166604
000090 69 ac 9c bd c8 c0 c3 bd 4a c4 db bd 84 78 38 bd
       -0.07650072 -0.095582545 -0.107307985 -0.045036808
0000a0 3a 20 a5 3d 6b 22 85 bd 09 2b 31 be 42 2f 12 be
       0.08062787 -0.06500705 -0.17301573 -0.1427584
0000b0 6d 54 c3 bd c2 55 74 3e e2 ed 21 3e e1 55 20 bd
       -0.09537587 0.23860839 0.15813401 -0.0391444
0000c0 83 79 42 be 68 52 8a 3d e3 2b e9 bd 76 48 8a be
       -0.18991666 0.06753999 -0.11385324 -0.27008408
0000d0 7b 17 b4 3d 73 fd db bc 82 d6 e9 bd 06 87 5c 3e
       0.08793541 -0.026854252 -0.11417867 0.21535882
0000e0 04 dc c3 bc c6 d4 28 be e1 28 e5 3d 09 9f 7c be
       -0.023908623 -0.16487417 0.11189438 -0.24670042
0000f0 70 8d 26 3e fe aa 55 3e ef 28 26 3e 84 ef 2c be
       0.16264892 0.2086601 0.16226552 -0.16888243
000100 7d b3 24 be 88 d0 b4 3d 61 d1 cd bd ff c5 06 3e
       -0.16084094 0.08828837 -0.100497015 0.13161467
000110 6e 59 ad bc b5 bf 50 be e6 4d 57 bd a3 47 85 3d
       -0.021160807 -0.2038563 -0.052564524 0.06507804
000120 bc d3 12 3e fd fc b8 3d e6 30 30 bd 3d 67 eb bd
       0.14338583 0.09032629 -0.043015383 -0.114943005
000130 ec 62 63 bd 18 a2 42 3e 56 3f 7c be f0 c1 a0 3d
       -0.05551426 0.19007146 -0.24633536 0.07849491
000140 84 cb bc bd 45 35 fb 3c 0e 74 18 3e e9 56 65 be
       -0.09218505 0.03066505 0.14888021 -0.22396435
000150 94 81 87 3e df 7b da 3d 01 47 76 3d a2 73 91 bc
       0.26466048 0.10668158 0.06012631 -0.017755333
000160 1b e3 b9 3e ae a5 2e be 0d 26 c5 3b 7b c5 86 3e
       0.3630608 -0.1705539 0.006016499 0.2632254
000170 89 9f 4c 3e 06 26 10 3e 45 61 0f 3e 6e ab 3b be
       0.19982733 0.14077005 0.14001949 -0.18327114
000180 5d 87 09 3e 4f d6 2b be e1 6d 68 be 85 5d da 3c
       0.13430543 -0.16780971 -0.22698165 0.026655922
000190 b5 8b 83 bd fe 5b 98 bd 5a 21 69 3d d3 6f e5 3b
       -0.064231314 -0.07439421 0.056916572 0.007001856
0001a0 ff b9 c4 bd 2f c4 3e bd f4 32 65 3d 6c c8 54 be
       -0.096057884 -0.046573814 0.055956796 -0.2077958
0001b0 16 89 94 bc ed c1 bb 3d 6e 21 a3 3c 8e 1c 24 3d
       -0.018131774 0.09167848 0.019913401 0.040066294
0001c0 d5 af c4 3c 1b ad 47 bc a4 d9 59 3e 12 54 f4 bd
       0.024009624 -0.012187268 0.2127443 -0.11930098
0001d0 c9 34 f8 bd a0 e2 7d bd dc d2 f5 bd 25 84 2d 3e
       -0.12119443 -0.061983705 -0.12003109 0.1694494
0001e0 cb 13 34 3d d9 84 2b bd 2f b0 69 3e ea 86 11 3d
       0.04396419 -0.04187474 0.22821115 0.035529055
0001f0 84 9e a5 bd 7e 85 80 be 0d 53 3f 3d d8 79 6e be
       -0.08086875 -0.25101846 0.046710063 -0.23288667
000200 8c b6 88 be 8e 0d 11 be 3e 0f d9 bd 90 ec 9b 3d
       -0.26701772 -0.14165327 -0.1059861 0.0761348
000210 5e b0 82 bd 0b ce 51 be 82 45 c5 3d 1a c5 07 be
       -0.063812956 -0.20488755 0.09632398 -0.13258782
000220 e5 92 ee 3d af 60 a4 bd 9e f9 6d be db 48 04 3d
       0.11649112 -0.080262534 -0.23239753 0.032296043
000230 58 35 84 3e 03 88 15 be 11 fe 14 be 53 10 2c 3c
       0.25821948 -0.14602666 -0.14550044 0.010501939
000240 b2 db 4a 3e 85 5f 70 bd 7c b4 87 be 8c 50 a5 be
       0.1981037 -0.058684845 -0.26504886 -0.32288015
000250 64 d1 d0 bc ec c9 8e 3e 2c 63 0e bc 7a 26 40 bc
       -0.02549047 0.2788843 -0.008690637 -0.0117279235
000260 38 39 af bd de f6 d3 bd 32 15 9e bd 18 1a 15 be
       -0.085558355 -0.103498206 -0.077188864 -0.14560735
000270 7d ac cc bd a2 21 ab bd e2 a7 cb bd e3 ad 70 bd
       -0.09993837 -0.08356024 -0.099441305 -0.05875958
000280 6e 2b 67 3e 7e 46 84 be d9 d1 2d be 3f 99 ee 3b
       0.22575161 -0.2583503 -0.16974582 0.007281452
000290 8f 15 5a bc 26 49 37 3e 05 9c 09 3e 8a 47 3b 3d
       -0.013310804 0.17898998 0.13438423 0.04572252
0002a0 2b a6 0f 3d 48 c3 39 3e 6a bb c4 bd ac a3 c6 3e
       0.03507058 0.181409 -0.09606059 0.38796747
0002b0 ba 82 61 3e 3a 04 a5 bc 0e d0 08 be 4f 17 70 bd
       0.22022524 -0.020143617 -0.13360617 -0.05861598
0002c0 ab ae c5 bd 3e 8c 4a 3e c6 39 93 3c 56 87 2f 3d
       -0.09652456 0.1978006 0.017971884 0.042853676
0002d0 5c 87 34 bc 19 fc 77 3d ae 5d dd bd c1 48 fb bc
       -0.0110186 0.060543153 -0.108088836 -0.03067434
0002e0 84 d9 f4 bc cc b6 81 bd dd 60 6f 3e 68 26 90 3e
       -0.029888876 -0.06333694 0.23376794 0.28154302
0002f0 61 5c 91 3e ab 87 a4 bd 4e 9e 9d be f7 32 a3 3e
       0.28390792 -0.08033689 -0.3078484 0.3187482
000300 89 8e d1 bc e2 5f 39 be fa fc 94 be de cb 1e 3d
       -0.025580661 -0.18102983 -0.29099256 0.03876864
000310 fb e4 ae 3c 00 fd cf be 4a 2d 90 3d 3b 77 b9 3d
       0.02134942 -0.4062271 0.07039888 0.090559445
000320 e8 0e 73 3d f5 c1 0f be cc e6 8f bd 07 7a 13 3d
       0.059340388 -0.14038832 -0.07026443 0.036005046
000330 e5 43 00 3b f8 c4 a2 3d 1b b0 91 bd 9a de b1 3c
       0.0019571718 0.07947725 -0.071136676 0.02171259
000340 45 d6 41 3d 16 fc 60 3e 1b 3d cd bc cd 30 82 3d
       0.047323484 0.21971163 -0.025053551 0.06356964
000350 da 3e 40 bd 0e 6f e0 bd 28 a1 68 3d 45 f4 11 be
       -0.04693494 -0.10958682 0.056794316 -0.14253338
000360 68 db 12 be 03 bc 8f 3c ff b4 25 be ef 39 6d be
       -0.1434151 0.017545706 -0.16182326 -0.23166631
000370 75 fe 4b bd 24 a9 0b bd 8e f9 bb bc fd 64 8b bd
       -0.049803216 -0.034096852 -0.022946145 -0.06806371
000380 7e ca 3b be 07 04 c6 bb 14 84 cf bd f8 41 57 bd
       -0.18338963 -0.0060429606 -0.10132614 -0.052553147
000390 4f 3c dc bd e3 24 65 3d 0e 35 cc bd 3e e4 66 3e
       -0.107536905 0.05594338 -0.09971057 0.22548005
0003a0 c2 a1 a0 3c 4c 15 95 3e 3b 0e 88 bd a6 00 78 be
       0.019608382 0.2911781 -0.06643339 -0.24218997
0003b0 97 d8 04 bd 04 43 f9 3c 32 76 69 3e f3 b6 5d be
       -0.03243312 0.030427463 0.22798994 -0.21651821
0003c0 35 26 ad bd 74 62 59 3e 61 64 26 3e 59 62 2b 3e
       -0.08454553 0.21228963 0.16249229 0.16736735
0003d0 ce d2 0b 3e 0f a6 91 3e d9 bc 0a 3e ef 27 80 bd
       0.13654634 0.28447005 0.13548602 -0.06257617
0003e0 e7 08 e9 ba 31 b2 7a 3d a6 de 91 bc 75 77 1a bd
       -0.0017779142 0.061205093 -0.017806362 -0.03771158
0003f0 af 6d 42 bd 2f 2f 2f 3d 7a ca 8e bd 9c ca 03 3e
       -0.047467884 0.042769607 -0.06972213 0.12870258

weight f4 [64, 32, 5, 5]
000000 97 84 f5 bd 9f 5d 36 3d f7 0b ab bd 3a 96 74 bd
       -0.1198818 0.044522878 -0.083518915 -0.05971358
000010 aa 12 08 bc 50 5f ea bc 86 f3 57 bc 0b d2 8f bd
       -0.008305231 -0.028609902 -0.013180619 -0.070224844
000020 ed 95 ea bc 92 1f 8a bd a9 4f 4a bd 5e 0d 88 bd
       -0.028635943 -0.06744303 -0.049392376 -0.066431746
000030 d8 cc bd bd d5 76 51 bd bc 36 a9 3c f3 f5 d8 bc
       -0.092675865 -0.051138718 0.020655982 -0.026484465
000040 e1 a8 c4 bd bb c5 17 be 0f 84 28 bd c9 1e 8d bd
       -0.096025236 -0.14821522 -0.041141566 -0.068906374
000050 8d b9 48 3e a2 6a 48 bd c0 83 3a bb 44 26 4d 3e
       0.19602032 -0.048929818 -0.0028459877 0.20034128
000060 93 e3 e4 bd 26 7d 3f 3d 81 97 61 bb 88 59 e8 bc
       -0.11176219 0.04675021 -0.0034422579 -0.028363004
000070 db 28 d4 bd fe 17 00 3d f1 53 7c 3c 4d 1c fd bb
       -0.10359355 0.03127288 0.015400873 -0.007724321
000080 97 4f b4 bc 92 72 34 bb fc b6 8e 3d 6e 35 be bd
       -0.022010608 -0.002753411 0.06968495 -0.09287535
000090 dc 42 57 be b7 af 36 bc ef d5 20 bc e9 10 65 3d
       -0.21021599 -0.011150292 -0.009816631 0.05592433
0000a0 7d 5e d4 bd a7 51 57 bd 9d 5a 8a bd 21 7e 84 bd
       -0.10369585 -0.052568104 -0.06755564 -0.0646937
0000b0 fc 3c 56 3c 39 a4 49 be 22 a9 08 3e 10 3f 26 3d
       0.013076063 -0.19691552 0.13345769 0.040587485
0000c0 cd 98 44 bd 61 96 0a 3e 7c f7 17 bd f3 61 ba bc
       -0.047997285 0.13533928 -0.037101254 -0.022751784
0000d0 bc 48 71 3d 1f 31 bf bd a3 f8 78 bd 76 5d 5a 3b
       0.058907256 -0.09335541 -0.060783993 0.0033319867
0000e0 8e 59 c7 3b ca 2d 8a 3d b2 18 af bd ab b5 23 3d
       0.006083674 0.06747015 -0.08549632 0.039968174
0000f0 93 02 01 be 69 59 82 bc 14 4b 67 bd 90 69 30 be
       -0.12598638 -0.015911775 -0.056468084 -0.17227769
000100 7f c6 0b be 52 3a 88 3c 10 29 2d bd 9e 3a f0 3c
       -0.13649939 0.016629372 -0.04227549 0.029324826
000110 e1 48 7b 3d f1 2f e6 bd ad e3 d3 bd c3 af 65 bd
       0.0613488 -0.11239613 -0.1034616 -0.056075823
000120 c0 69 0c 3e 1c e2 d0 3d d1 f7 16 be 2c d5 ba bd
       0.13712215 0.10199377 -0.14742972 -0.091226906
000130 19 0c 85 3b 9d e5 f3 bd a2 b5 a2 3b bf 6b 45 bd
       0.00406028 -0.1190903 0.0049655 -0.048198458
000140 b0 d0 e2 bc 67 eb 13 be 8c c0 ce bd 6d 60 4c bd
       -0.0276874 -0.14445268 -0.10095319 -0.049896646
000150 0a ae 58 bd f7 11 ee bd bc b3 1b be 07 db be bc
       -0.05290035 -0.1162452 -0.15205282 -0.0232978
000160 6a 1c 60 be 13 ee b4 bd 11 2f f7 bd d1 4c ac bd
       -0.21885839 -0.088344716 -0.12069524 -0.08413089
000170 39 d1 83 bd ad e8 01 bf 73 f8 1c be 4c d3 88 bd
       -0.064363904 -0.5074566 -0.15329151 -0.06680927
000180 f3 d8 4a be a2 07 ac ba 48 22 9b 3d 5c bc 3a bd
       -0.19809322 -0.0013124833 0.07574898 -0.04558979
000190 0f bc 23 3d 4e 75 04 be 51 74 8b bd cb 54 5f bd
       0.03997427 -0.12935373 -0.06809295 -0.054524224
0001a0 1d 4a 24 bd 19 b8 84 bd b6 8f 7c bd 53 68 c8 bc
       -0.040109742 -0.06480426 -0.06166049 -0.024463808
0001b0 4a 7c 02 be c9 a8 86 3b 92 9e 80 be d9 ee a7 bd
       -0.12742725 0.004109476 -0.2512098 -0.081998535
0001c0 5f bc ba bd 7a 3e 44 be 6e 7e 2b be 4f 51 2d b8
       -0.0911796 -0.19164458 -0.16747448 -4.132214e-05
0001d0 6d 10 76 bd 13 c2 99 3d 1a c6 d2 bd 17 45 66 3c
       -0.06007426 0.0750772 -0.10291691 0.014054558
0001e0 73 90 9f 3e 12 a3 d0 3d d6 18 cd 3d d6 19 8d bd
       0.31164894 0.10187353 0.10014503 -0.068896934
0001f0 5f d5 2a 3e c7 f9 04 be fb 3b d8 bc 7a b0 c5 bd
       0.16682957 -0.12985907 -0.026395788 -0.09652801
000200 3d 8a ed bd b1 c5 a3 bd 76 c1 3a 3d 59 e6 a0 3d
       -0.115986325 -0.07996691 0.045594655 0.07856435
000210 7b f1 de 3c 6a 1f 48 bd d5 d7 70 3d 8d 95 7e 3d
       0.027214756 -0.048858084 0.058799583 0.06215434
000220 f2 0f 11 bd 51 01 cc 3c d1 cf 67 3d 56 6f 3a bd
       -0.035415597 0.024902971 0.056594674 -0.045516334
000230 df 15 ab bd 38 99 89 bd 74 28 f7 3b a5 e2 7e bc
       -0.08353781 -0.06718677 0.007542664 -0.015556966
000240 ef 2a 05 bd 2f b6 a1 bd fb 3a 7c bd d8 8e 04 be
       -0.032511648 -0.07896077 -0.061579686 -0.12945116
000250 03 75 ca bc 7f 30 86 3d e9 fb 13 be 9d b7 3b be
       -0.024713999 0.06552219 -0.14451565 -0.18331762
000260 7a d1 e9 3d a7 f0 95 3b 06 34 09 bd fa 22 ba bd
       0.114169076 0.004575807 -0.03349688 -0.090887025
000270 ac a5 93 bd a7 06 03 be 3a d4 d5 bd 1c f1 95 bd
       -0.07209334 -0.12795506 -0.1044087 -0.073213786
000280 ac 7d 93 bc 3a 32 88 3d 8d eb 51 bd e8 4e f8 bd
       -0.018004261 0.06650205 -0.05125003 -0.12124425
000290 e0 17 64 3d 08 85 30 3c b0 bb 94 bd 92 c6 8d 3c
       0.05568683 0.010773905 -0.07262361 0.0173066
0002a0 73 90 43 3d 47 41 52 be 59 d3 59 be 70 1e 7f bd
       0.04774518 -0.20532714 -0.21272029 -0.062284887
0002b0 de 51 c4 3d 4c b8 b1 bc f7 ef 0b be ea 18 6b bd
       0.095859274 -0.021694325 -0.13665758 -0.057396807
0002c0 5d 00 01 be 4c 65 45 bd 13 61 3f be cd eb 0b be
       -0.12597795 -0.048192307 -0.18689375 -0.1366417
0002d0 68 3c 36 3e 40 e1 b0 bd 1c 67 cc 3d 8e cd 02 3c
       0.1779648 -0.08636713 0.09980604 0.007983578
0002e0 55 4a e5 bb 6b 08 09 3b 05 a3 7e bc b5 83 23 3d
       -0.0069973865 0.0020909559 -0.015541797 0.039920527
0002f0 2a 78 1d bc 35 2c 52 bc f6 c0 24 3b 9a c0 b8 bc
       -0.009611169 -0.012827923 0.0025139428 -0.022552777
000300 4c 9e 36 3d 97 fd dd bd d4 53 09 3c e0 a3 1f 3d
       0.044584557 -0.10839384 0.008381803 0.038974643
000310 79 5c d6 bc 8a dd 58 3d e7 e0 a2 3d 0c 96 10 bd
       -0.026167141 0.05294565 0.07953053 -0.035299346
000320 b5 9e 6d bd c4 ae e4 bc 95 bf bd bc 80 e0 0e bd
       -0.058012683 -0.027915366 -0.023162642 -0.03488207
000330 6e a4 a6 bd 9c bb 46 be 4d 2f e1 bd 96 9c 48 bd
       -0.08136831 -0.19407505 -0.1099535 -0.048977457
000340 1a 94 e1 3b 42 1a 39 bc ec 4d f7 bd c5 1b 97 bd
       0.00688411 -0.011297764 -0.12075409 -0.073783435
000350 f9 fa 3c bd d5 ff 1e bc 24 e9 94 bd 1d 89 b5 3b
       -0.046137784 -0.00970455 -0.072710305 0.005540027
000360 b7 8b d5 bc e7 4a d9 bc 14 74 26 3d a2 51 e3 bd
       -0.026067598 -0.026524974 0.040638044 -0.110995546
000370 84 2f d2 3c 54 50 8c 3d 4b 75 2e bd 56 b4 60 3e
       0.025657423 0.06851259 -0.042592328 0.21943793
000380 b5 9c cb 3d d4 51 94 bc c8 0d 6c bd 8a 36 65 bc
       0.09941999 -0.018105425 -0.05763033 -0.013990054
000390 0f 07 6e 3d 1f 15 d5 bd d1 eb f0 bc 01 59 78 3b
       0.0581122 -0.10404419 -0.029409321 0.0037894847
0003a0 0c 7e 2f bd d8 43 0e 3e 1e 43 e7 bd 2c 7d 53 be
       -0.042844817 0.13893068 -0.112920985 -0.20653218
0003b0 ca 8c 90 bc 5e a0 84 bb 93 f4 e8 bd 3e 0e a6 ba
       -0.017645258 -0.0040474376 -0.11374774 -0.001266904
0003c0 e5 f2 ae be b1 3c 50 3e ec ad ae bd 05 3c 0b bd
       -0.3416969 0.20335652 -0.08529267 -0.033992786
0003d0 a2 bf 89 bd 37 20 8d be 08 1b d2 bc ad 08 17 be
       -0.06726004 -0.2756364 -0.025647655 -0.14749403
0003e0 4b 8c 05 bd 62 50 1a bd 5f 82 d0 bd fb 76 8f bc
       -0.032604497 -0.037674315 -0.10181116 -0.017512789
0003f0 c9 e7 34 bd ae 9c eb bc 89 91 2b be 54 b9 8e bd
       -0.04416636 -0.028761234 -0.16754736 -0.06968942

weight f4 [256, 256]
000000 54 ba 8c bd 7c df 0b 3e 4d 90 0f bd 77 a7 08 bd
       -0.06871477 0.13659471 -0.035049725 -0.033362832
000010 2d 54 93 3a cb e1 d0 bc b9 ba 88 3d b3 f8 e8 3b
       0.0011240296 -0.025498291 0.066762395 0.0071097254
000020 40 1d a5 3d 55 f2 b2 3d e2 cd 15 bb 4e b4 c2 3b
       0.080622196 0.087376274 -0.0022858311 0.005941904
000030 92 2e 82 bd 7c 57 5f 3d f9 ad 4f bd dd 22 06 be
       -0.06356539 0.05452679 -0.050703023 -0.13099237
000040 ca 6c 10 3e 81 6b 07 be 19 39 15 be fe d5 a5 bd
       0.14104 -0.13224603 -0.14572562 -0.080974564
000050 09 c9 da 3c f3 d9 c5 bc 3e c6 9c bd 4f ac e9 bd
       0.02670719 -0.024151778 -0.07654999 -0.114098184
000060 8a 29 d4 bd b7 f3 08 be b8 0c 4a bd ab 02 ae bd
       -0.103594854 -0.1337422 -0.049328536 -0.084966026
000070 f4 a6 08 be 59 b4 85 3e fb 55 8a 3d d7 76 de 3a
       -0.13344938 0.26114157 0.06754681 0.0016972673
000080 be 8c d6 3d 0c 5b 6b bd 07 e4 f8 bd 9f eb b2 3d
       0.10476063 -0.057459876 -0.12152868 0.087363474
000090 cb c4 3c 3e 15 d8 47 3d 18 25 db bd d1 20 73 be
       0.18434446 0.048790056 -0.107004344 -0.23742987
0000a0 1a e8 bc 3a 0b 5f 03 3e 24 c6 a3 3d 90 96 88 bb
       0.0014412433 0.12829225 0.07996777 -0.004168339
0000b0 f1 09 fd bd 24 88 51 3d f3 30 9a 3c f2 fa 02 3e
       -0.12355412 0.051155224 0.018822169 0.1279104
0000c0 b0 6a 9d 3d a4 5b 98 3e 22 32 2a be d2 5a 7c 3c
       0.07686365 0.29757416 -0.16620687 0.015402513
0000d0 cf e6 e3 bd 3c 98 14 3d 84 00 97 bc ca f0 d8 3d
       -0.111280076 0.036277995 -0.018432863 0.10592802
0000e0 b8 17 44 be af 72 06 bb 8e 05 9a 3c 9b ff 4e 3e
       -0.19149673 -0.0020515134 0.018801477 0.20214693
0000f0 8d db 80 3c 2c 5f ac bc 2e 25 da 3b 6d e1 9e 3c
       0.01572969 -0.021041475 0.006657264 0.0193946
000100 7e 28 6f 3d db 33 25 3e 27 a5 ac bb 94 50 97 3d
       0.058388226 0.16133063 -0.005268711 0.07388416
000110 9b f8 e2 3d 71 da 62 3d d8 6a bf bc 14 fd 1d 3d
       0.11082574 0.055384103 -0.023366377 0.038571432
000120 b2 ba e3 bc b2 ee 70 bd 10 46 33 bd 39 da cd 3d
       -0.027798984 -0.058821388 -0.04376799 0.10051388
000130 2f 81 ad bd 05 75 1a 3e 68 7b 33 3e 01 b0 d8 3b
       -0.084719054 0.15083702 0.17527544 0.006612778
000140 06 b6 3f 3e 93 e7 2c bd 0b 39 85 3c ed ea 42 3c
       0.1872178 -0.042213034 0.016262552 0.011896831
000150 ce e7 02 3e 3c 4e be bc d1 95 6c be 34 45 e4 bd
       0.12783739 -0.023230664 -0.23104025 -0.11146012
000160 79 78 7d 3e 17 e5 86 3e 34 0b 14 be 5e 4c 36 3d
       0.24752988 0.26346657 -0.14457399 0.044506423
000170 43 3b 5a 3e b3 4b ff 3c 42 aa dd 3d e7 d1 fb 3d
       0.21311669 0.031164026 0.1082349 0.12295895
000180 63 d2 a2 3b c0 75 5a 3d 95 ee 45 be 34 1c 8d bd
       0.0049689277 0.05333495 -0.19329293 -0.06890145
000190 18 da b7 3b dd 40 1f be 18 69 07 3c 53 40 95 bd
       0.0056107156 -0.15552087 0.008264802 -0.072876595
0001a0 35 13 af 3d 8e 0d 36 3e 23 a0 26 3e 11 c1 3c 3d
       0.08548585 0.17778608 0.16272025 0.04608256
0001b0 7c 48 ad bd 8e 7b bf 39 dc fb 66 3d 36 c0 29 be
       -0.08461091 0.00036522414 0.056392536 -0.16577229
0001c0 0e ba ef 3e 82 f4 1e 3e e6 38 23 be ca 19 3c 3d
       0.46821636 0.1552296 -0.15939674 0.045923032
0001d0 2b 1f 49 3d 4b 47 e4 bd 5a 90 9e 3a f5 7f f0 bc
       0.04910199 -0.111464106 0.0012097463 -0.02935789
0001e0 9b e1 3f be eb f8 2a 3e 83 9b 55 bd 26 57 39 3d
       -0.18738405 0.16696517 -0.05215026 0.045249127
0001f0 88 98 1c be fb cc 51 3e cb 94 7d bd 4a 18 d0 bd
       -0.15292561 0.2048835 -0.06190948 -0.10160883
000200 dd 5c 3c 3d 09 45 03 3d 05 5f 26 3e 5d dd 59 3d
       0.045987 0.03204826 0.16247185 0.053189624
000210 48 47 47 3d 85 5c 09 be ec 2e b9 3d 8c e2 9a bd
       0.048651963 -0.134142 0.09042153 -0.07562742
000220 7b 23 9b 3e f6 63 9b 3d cb 83 22 3e 64 43 e4 3d
       0.30300507 0.075874254 0.15870588 0.11145666
000230 72 bf 08 3e ec 7f be bd 31 37 14 3d 6b 2d 78 bd
       0.1335428 -0.09301743 0.036185447 -0.06059019
000240 60 b7 4a 3e b7 b5 92 3d d1 8e ca 3d f8 4b 8f bd
       0.19796515 0.071635656 0.09890521 -0.06996912
000250 5d e4 20 3e 0e 66 c1 3e 2b 7f 8e 3c a5 49 0e 3b
       0.15712114 0.37773174 0.017394623 0.0021711376
000260 b5 e7 09 be e9 e3 84 3b a1 15 6c 3d 3c bb 8b bd
       -0.13467295 0.0040554893 0.057637814 -0.068228215
000270 ab ff 9d 3d 6b da 06 3e 8f 90 90 3d 18 7b 8c bc
       0.077147804 0.13169257 0.07058822 -0.01714854
000280 6e 19 5e bc 80 f8 65 3d a0 67 3d 3d dc bf bd bc
       -0.013555868 0.05614519 0.046241403 -0.023162775
000290 85 e4 3b 3d e2 8c 95 3d 3f 8e 05 be d0 f7 7a 3d
       0.04587223 0.07302262 -0.13042544 0.06127149
0002a0 13 7c ec 3b bc 2f 9a bd d7 17 9d bd 6b 5e 5d 3b
       0.0072169392 -0.07528636 -0.07670563 0.0033778201
0002b0 92 0f 2a 3e 9b a6 84 3d e4 b6 bb 3d c0 24 37 bd
       0.16607502 0.0647709 0.09165743 -0.044712782
0002c0 79 84 37 3d 28 25 7a 3d 7f b1 a7 bd 90 85 62 bc
       0.04480407 0.06107059 -0.081881516 -0.013825789
0002d0 08 74 3d 3c 67 13 ec bd 6b eb 05 3e ed 28 29 3d
       0.011563309 -0.11527138 0.13078086 0.041298795
0002e0 ed fe b1 bd 88 2e c3 bd ac f9 e8 bd 1d e3 21 3d
       -0.08691201 -0.095303595 -0.11375746 0.039523233
0002f0 f1 a3 42 3d df 3a ed 3d a6 72 34 3e 92 08 a1 3d
       0.047519628 0.115834944 0.1762186 0.07862963
000300 58 f5 c8 3d c0 0a ba bd ab a4 97 bd 47 a4 36 3d
       0.098124206 -0.09084082 -0.07404455 0.04459026
000310 f2 5d de 3d 2d a8 77 3c c2 ff 33 3e f2 7c 03 be
       0.108577624 0.01511578 0.17578033 -0.12840632
000320 91 ca 7b 3d 11 5d cf 3c 53 bd 11 be 1c 5b 0b 3d
       0.06147248 0.025312932 -0.14232378 0.034022436
000330 e8 80 19 3d 61 6d aa 3d d4 96 bc bd 98 c4 46 3d
       0.03747645 0.083216436 -0.09208456 0.04852733
000340 17 8d 2e 3d aa 14 bf bd 97 ac 9f bd 32 30 cd bd
       0.042615023 -0.09330113 -0.07796591 -0.10018958
000350 0c 37 1d 3e 9d 0c 6d 3e 7b 3c 4c 3d 69 50 73 bd
       0.1535303 0.23149343 0.049862366 -0.059402857
000360 d9 f4 72 3d 33 01 38 3e 2f e6 24 be f4 3a e6 bd
       0.059315536 0.17969207 -0.16103433 -0.11241713
000370 eb 6c e2 3d 60 58 5d bb 4b 98 5e 3e ef 07 58 bd
       0.11055931 -0.00337746 0.21737783 -0.05274194
000380 77 86 c6 bb 9f 88 90 3c 81 66 80 bd b3 00 cd 3c
       -0.00605851 0.017643271 -0.06269551 0.025024747
000390 8f 92 cd bd de 2f 48 bd 92 34 e0 3d 7c 27 46 3e
       -0.100377195 -0.048873775 0.10947527 0.19351
0003a0 e1 e9 41 3d f5 f7 ef 3e c3 02 99 bd 32 1b b4 bc
       0.047342185 0.46868864 -0.0747123 -0.021985624
0003b0 31 9f 80 3e 9e 6d 2c 3e b2 67 11 3e 13 43 c3 3d
       0.25121453 0.1683869 0.14199713 0.09534278
0003c0 97 97 aa bd 1c e3 8f 3d 85 01 3c be fd 09 0a be
       -0.08329695 0.070257396 -0.18359955 -0.13480373
0003d0 a3 51 01 bd 20 8d 69 bd 12 0e 2e bd 5f be 08 3e
       -0.031571995 -0.057019353 -0.042493887 0.13353871
0003e0 42 46 2c 3e ca 4f c2 bd d0 31 ad bd ad 7a 7f 3c
       0.16823676 -0.09487875 -0.084567666 0.015593213
0003f0 9e 38 9f bd f7 63 a6 bc 99 aa ad 3d 13 1b ff 3c
       -0.07774471 -0.020311339 0.084798045 0.03114084

bias f4 [256]
000000 bf 47 4f bd a6 fb 9a 3d f3 ea db bc c5 8c af 3d
       -0.05060553 0.075675294 -0.026845431 0.085717715
000010 e4 7f 8f 3d 06 54 74 3d 47 0f 80 3d 31 f3 97 bd
       0.07006815 0.059650443 0.06252914 -0.07419432
000020 c6 61 8c 3c bb 61 0e 3e 44 61 f8 3d f2 e9 b3 bc
       0.017136466 0.13904469 0.12127927 -0.02196214
000030 47 22 08 3d b8 62 a2 3e fd 86 95 bd 3a 97 4f 3e
       0.033235814 0.3171594 -0.073011376 0.20272532
000040 3d 58 23 be 36 90 96 3e 46 12 27 3e a3 35 e0 3d
       -0.15951629 0.294069 0.16315565 0.109477304
000050 cc 51 eb 3c 71 c4 5d 3d ac 62 bc 3a 27 e4 48 3e
       0.028725527 0.05414242 0.0014372668 0.19618283
000060 9d 7a 8a be 16 45 b7 bc 55 05 e5 3d 4d dc eb 3d
       -0.27046672 -0.02237181 0.11182658 0.115166284
000070 52 20 ba 3c 9f 00 e2 3d c0 d7 93 bc 86 9e 09 bd
       0.02272049 0.11035275 -0.018047214 -0.033598445
000080 61 17 52 be 6e 7c 3b be 9d b4 82 bd 85 93 1e be
       -0.20516731 -0.18309185 -0.063821055 -0.15485962
000090 ce 15 21 bd 64 c2 5b 3e 82 38 18 3d 31 5b 40 3d
       -0.039327435 0.21460873 0.037163265 0.046961967
0000a0 41 88 41 bd a9 6a 28 bc 81 5d 1b 3e e1 56 a2 bd
       -0.047249082 -0.010279336 0.15172388 -0.07926727
0000b0 e2 d6 35 bc 7b e6 2c 3e 96 1e 5e be 23 e4 16 bc
       -0.011098595 0.16884796 -0.21691355 -0.0092096655
0000c0 51 90 c2 3d 61 cf 0f bd 80 7b 85 3d e1 78 b5 bc
       0.095001824 -0.03510988 0.065176964 -0.022152366
0000d0 e4 98 b6 bd ea fd 13 bd 01 6e a8 3c 7f a2 2a be
       -0.0891588 -0.036130823 0.020560266 -0.1666355
0000e0 a6 40 31 bd 36 e0 be bb f3 0f 61 be b9 4f b2 bd
       -0.043274544 -0.005825068 -0.2197874 -0.08706612
0000f0 8c 9e 9f bd b4 6c 61 be 37 87 b4 3c 28 63 f2 3b
       -0.07793912 -0.22014123 0.022037132 0.0073970743
000100 a9 80 8b bd 46 6d 34 bd 4c 69 1d bb 4c cd f2 3d
       -0.06811649 -0.044049524 -0.002401906 0.118555635
000110 d9 fb e3 b9 31 ae 2d 3d 8f 3d 6c 3d 73 28 a8 3d
       -0.00043484455 0.04240245 0.057675894 0.0821084
000120 2d f2 26 bd ea ae 68 be 43 2c f8 3d ca 45 a9 3d
       -0.0407583 -0.22722974 0.12117817 0.08265264
000130 21 54 70 3d aa b2 8b bd 5d c2 ad 3d 54 4e a5 bc
       0.05867398 -0.06821187 0.084843375 -0.020178951
000140 94 32 3a be c5 27 97 bd c4 d0 62 3e c3 25 8e bd
       -0.18183357 -0.07380632 0.2214995 -0.06940796
000150 ad 8e d9 bc a8 cf e0 3d 1f ca ad bc fd 8c a1 3a
       -0.02655729 0.10977107 -0.021214543 0.0012325343
000160 1a c7 59 3e 92 f6 99 39 fb 17 d5 bd 1e 3e b5 bd
       0.21267357 0.00029366143 -0.104049645 -0.088497385
000170 c4 21 ce bd d2 1d 33 3d 62 7c f3 3c 94 49 22 bd
       -0.10065034 0.04372961 0.029722396 -0.03962095
000180 c5 a4 24 be be c3 67 bd 9d 9f 2a 3d 59 41 b6 bd
       -0.1607848 -0.05658316 0.041656125 -0.08899183
000190 c9 f8 f3 3d c6 05 ce 3c d5 d6 7f bd 8d ce 3f 3e
       0.119126864 0.025149237 -0.06246074 0.18731137
0001a0 be b9 6d 3d 44 6d 4b 3e 0b e4 3e 3e 71 ac fd 3b
       0.058038466 0.198659 0.18641679 0.007741504
0001b0 34 6e 4a 3e d1 5b 9f bd a5 a0 39 3c 00 3f c4 bd
       0.19768602 -0.077811845 0.011329805 -0.09582329
0001c0 24 d5 2a be 6f 98 21 3d 7a 2c 99 bd dc c6 ba bc
       -0.16682869 0.039452013 -0.07479186 -0.022799902
0001d0 65 48 2d 3e cb 3e 91 3d fc e0 10 3c 84 5a 19 be
       0.16922148 0.07092055 0.008842703 -0.14975935
0001e0 6c 2b ac bc ed c5 a6 bb 2b a7 82 3c 3e 60 fc bc
       -0.021016799 -0.0050895126 0.015948853 -0.03080761
0001f0 54 6d 9f bc d0 09 3c 3e e6 3a f0 bb 48 b4 48 be
       -0.019461311 0.18363118 -0.00733124 -0.19600022
000200 f7 91 f6 bd 44 be 01 3e 2f 62 59 bb 2b d8 29 bd
       -0.12039559 0.12670237 -0.0033170094 -0.04146592
000210 dc 02 54 be 5c c3 11 bc f4 eb 7c 3c b6 32 37 3d
       -0.20704216 -0.008896675 0.015437115 0.044726096
000220 7b 3f d4 3d af d1 92 be 8b 9f bb bc 51 22 c9 bd
       0.103636704 -0.286756 -0.022903224 -0.098209985
000230 52 c2 42 3e 5e 92 8e 3e 40 e1 99 3b e9 e6 2d 3e
       0.1901944 0.27846044 0.0046960413 0.16982616
000240 0f ba 6a bd 73 f5 6e 3c c2 12 bc bd cd 03 44 3d
       -0.057306346 0.014584887 -0.09183265 0.047855187
000250 a9 ff 9b bd 1b 20 33 3e 10 7b 0b bd 34 7b 6c bd
       -0.07617123 0.17492716 -0.03405291 -0.057734683
000260 ce a0 84 bd 21 e6 0a 3e 55 e5 2e be d6 13 bc 3d
       -0.064759836 0.1356435 -0.1707967 0.09183471
000270 c7 5c c6 3b a2 e7 06 be 60 ad 4c bc 85 da 5f 3b
       0.0060535404 -0.13174298 -0.012492508 0.0034157347
000280 f7 97 2c be 90 fb 64 bd 9b cf 67 3e c7 4f a9 bd
       -0.16854845 -0.05590397 0.22637789 -0.082671694
000290 fc 6c 56 bd 66 fb 6b 3e d6 eb 52 3e 98 7c e8 3d
       -0.05235003 0.2304512 0.20597777 0.11351889
0002a0 40 c0 dc bd 4e 89 3a bd a0 32 9e bd 4c ea 63 bd
       -0.10778856 -0.0455411 -0.077245 -0.055643365
0002b0 f4 fa 55 bd 35 75 85 bd b7 7c 01 3b 74 02 2f bc
       -0.05224128 -0.06516496 0.0019758174 -0.010681737
0002c0 38 a9 43 be bf aa fa 3c 89 1f 51 3e d7 75 64 3e
       -0.1910752 0.030598996 0.20422186 0.22310577
0002d0 b4 c6 50 be 6c 6d c9 bc 85 e3 c0 bc e3 c1 2d bd
       -0.20388299 -0.02458831 -0.02354599 -0.042421233
0002e0 60 4f 57 be a6 39 53 3e 1b 8e cb bc 9d 51 98 3d
       -0.21026373 0.2062746 -0.024848035 0.074374415
0002f0 ee c3 e7 bc 2a a9 02 be c6 50 8e bc 4f 9e 70 bd
       -0.028291669 -0.12759843 -0.0173725 -0.058744725
000300 23 42 86 3e b0 40 01 bd f8 fb b6 3d 43 9b 5c be
       0.26222333 -0.03155583 0.08934778 -0.21543603
000310 b5 1f 23 3d 41 55 8f 3d 63 3d 98 bd cf 6c fc 3c
       0.03982516 0.06998683 -0.074335836 0.030813603
000320 0d cb 28 3e 32 81 54 3d 0b c2 2d 3e b8 79 3f bc
       0.16483708 0.051881023 0.16968553 -0.011686735
000330 83 7e ee bc 87 75 c9 3d 28 90 66 be e6 f6 b1 bc
       -0.02911306 0.0983687 -0.22515929 -0.021724176
000340 4a 38 e5 bd 79 5a 70 3e e0 fa 1d bc 30 04 5c 3e
       -0.11192377 0.23472013 -0.009642333 0.21485972
000350 f5 6a ef bd 85 6b 47 bd 23 af f8 bc ed 0c bd 3d
       -0.11690322 -0.048686523 -0.03035695 0.09230981
000360 0f 26 2d 3c 33 52 6e 3e 43 66 3e be d9 9e 4a bd
       0.010568156 0.23273544 -0.18593697 -0.049467895
000370 34 a6 4e be aa 86 94 3d f6 13 e2 3c 04 3c af bd
       -0.20180589 0.07252248 0.027597409 -0.08556369
000380 de a9 78 3d 6a 89 5c be 44 6c 67 3e db b6 7d 3b
       0.060708873 -0.21536794 0.22599894 0.0038713727
000390 3e d6 c9 3c c2 42 4f 3e 20 68 68 be ed 17 b6 bc
       0.024638291 0.2024031 -0.2269597 -0.022228206
0003a0 6f a5 2e 3c 35 23 89 bd 1c 42 d2 3d 49 23 1d bd
       0.01065956 -0.06696168 0.102665156 -0.03836373
0003b0 32 83 4b 3e 8d 1e 91 bd 83 31 5e 3e e9 e9 c6 bd
       0.19874266 -0.07085905 0.21698575 -0.097125836
0003c0 80 8a 2f 3c 33 20 c9 ba ae 47 9d be 8a e3 2c bd
       0.010714173 -0.0015344679 -0.3071875 -0.042209186
0003d0 6f 50 18 3e 2b 3b 37 3d 04 45 9a 3d 17 fb 21 3e
       0.14874433 0.04473416 0.07532695 0.1581844
0003e0 44 8a fc 3c 04 4f c8 bd 2f 9d 03 3d ec 9b b0 3c
       0.030827649 -0.09780696 0.032132324 0.021558724
0003f0 94 bb 46 3e 03 bb e7 3d 13 98 89 bd b2 94 f4 bb
       0.19407493 0.113149665 -0.06718459 -0.007464015

weight f4 [256, 256]
000000 2b 9b 95 bd 20 bb 2f bd 7c 3e 48 bd 73 44 11 3d
       -0.073049866 -0.042903066 -0.048887715 0.03546567
000010 17 22 ac bd 5b ed 78 bc 90 a1 ca 3c bf 7b 9b 3d
       -0.084049396 -0.015193309 0.024735242 0.07591962
000020 22 83 2e 3d 61 0e 74 bb 90 a9 ff bc 28 5b a9 3c
       0.042605527 -0.0037240016 -0.031208783 0.02067335
000030 41 ed 05 be c3 9a 76 bd 30 f7 56 3e 6a fd 18 bd
       -0.13078786 -0.060206186 0.20992732 -0.03735105
000040 2f 9c 5b 3d b8 4d 37 3d 7e 1e cb ba 8a 95 1f be
       0.053615745 0.044751853 -0.0015496758 -0.15584388
000050 f6 01 1b 3c 5d 6e 58 bd 0e 55 ce 3d 40 ba 82 3d
       0.009460917 -0.052839626 0.10074817 0.063831806
000060 cb 41 ac bc 4b fc 86 3d 67 1e ae 3d d7 13 b0 3d
       -0.021027466 0.0659109 0.085018925 0.08597534
000070 3c 36 c9 3d b1 45 eb bd 1f c4 27 3e 5d e9 72 3d
       0.098247975 -0.11487902 0.16383408 0.059304584
000080 30 d7 b9 3d 92 f4 18 be a0 01 be bc c7 2e 05 bd
       0.09074247 -0.14937046 -0.023194134 -0.032515313
000090 af 2e d8 bd 3e 97 48 3b c5 4b 19 3e 00 3d b9 3a
       -0.10555779 0.0030607725 0.1497031 0.0014132559
0000a0 24 df cc 3d b1 a0 95 bd bc fb 90 bd a5 2c 01 3c
       0.10003498 -0.0730604 -0.070792645 0.007884179
0000b0 d7 18 a5 bc 56 15 00 be ba e2 85 3d 51 5d ae bc
       -0.020153446 -0.12508139 0.06537385 -0.021284731
0000c0 aa 5b 49 ba be 44 6d bd 94 f5 fd 3b d4 9c f6 3b
       -0.00076812005 -0.057926886 0.0077502225 0.0075260196
0000d0 7d 55 37 3d 8f 03 7e bd c9 ca ff bc 61 bb c3 bd
       0.044759262 -0.062015112 -0.031224625 -0.09557224
0000e0 d6 47 55 bd 8b bf fc bb 90 b1 a6 3d cd 97 d1 3d
       -0.05207046 -0.0077132634 0.08139336 0.10234032
0000f0 bb 82 ef 3d 17 84 f9 3b 41 04 8a bd a3 bf b6 3d
       0.11694857 0.0076146233 -0.067390926 0.089232706
000100 da 6f 16 3e 4d dc 1d bd cc ce 86 bd 18 5b a6 bd
       0.14691105 -0.038540173 -0.06582412 -0.081228435
000110 56 52 b6 bd 73 2f 80 bc 9c 42 0a be 29 16 be bc
       -0.08902423 -0.015647626 -0.13501972 -0.023203926
000120 3b ca 23 bc 8a 3f b2 bd c5 40 03 3e 0e 5d b1 bc
       -0.009996946 -0.08703525 0.12817676 -0.021650817
000130 6f dd 87 3d 18 70 81 bc eb d2 95 3c 96 07 0c 3d
       0.06634032 -0.01580052 0.01828905 0.034186922
000140 b2 d1 ad bd a7 4f 95 3b b8 96 f6 3c 0f 2e 29 3e
       -0.08487262 0.0045566144 0.030101165 0.16521476
000150 af a4 88 3b e5 95 3e bd 6c b5 ee bc f7 35 66 3d
       0.0041700224 -0.04652967 -0.029139243 0.05620381
000160 2e 43 bb bd 64 d6 34 3d ed be 6d 3d 46 83 ed 3c
       -0.09143673 0.04414977 0.05804341 0.02899326
000170 38 3e 0d 3b 9c f2 b8 bc 59 73 d9 3d e8 17 af 3d
       0.0021551978 -0.022576623 0.10617704 0.08549482
000180 96 4d fd bc 70 6a a6 bd 56 ab 3b bd 91 19 3d 3c
       -0.030920785 -0.0812577 -0.045817696 0.01154174
000190 09 0b cb 3c c8 74 1a be f2 11 57 3d 49 1c 0c bc
       0.024785535 -0.15083611 0.05250735 -0.008551666
0001a0 66 91 26 bc 69 d6 ef bc ba 12 f5 3d dc 42 72 bd
       -0.010166502 -0.029277043 0.119664624 -0.059145793
0001b0 9b 99 e2 3d 4a c9 bc 3c cd c8 40 be 07 71 bb 3d
       0.11064454 0.0230452 -0.188266 0.09152418
0001c0 aa bd 5e bd 92 30 ac 3d 18 f7 04 3d 26 f4 d9 bd
       -0.054380096 0.084077016 0.03246221 -0.10642271
0001d0 1d 8b bc bc 5c 77 8d 3d 1c ec 68 bd a3 25 f6 bb
       -0.023015553 0.069075316 -0.056865796 -0.007511811
0001e0 28 0f bf b9 79 9a 22 3d 2a 7b c7 bc be 15 11 bc
       -0.0003644165 0.039698098 -0.024350721 -0.008855281
0001f0 c1 77 64 3d b2 99 19 bc fa 72 38 3e 9c a0 85 3d
       0.05577827 -0.009375023 0.1801261 0.065247744
000200 33 22 c5 bd 5f 15 ef bc 34 a1 e3 bc 39 c8 b5 bc
       -0.096256636 -0.029184995 -0.027786829 -0.0221902
000210 2d 1f a1 bd 4f fc e2 3c d9 24 18 3d a4 ab 10 be
       -0.078672744 0.0277082 0.037144516 -0.14127976
000220 12 45 15 3c 1f 61 91 3c aa 66 8a bd a3 2e ae bd
       0.009110706 0.017746506 -0.06757863 -0.08504989
000230 e1 e1 c5 3d fc d8 16 3d a6 33 e1 3c 5d 4d 09 3d
       0.096622236 0.036828026 0.027490448 0.033521045
000240 dd 6a 01 3e 45 a6 a4 3d 92 de e2 3c 12 e0 af 3b
       0.12638421 0.08039526 0.02769402 0.0053672874
000250 14 56 91 3c 7e 56 ad 3d b6 53 e1 bc 01 df 80 3d
       0.01774124 0.08463763 -0.027505737 0.062925346
000260 09 92 76 bd 09 0f 85 3d b4 6b 62 bd e3 cb 09 be
       -0.060197864 0.06497008 -0.055278495 -0.13456683
000270 da ea 13 bd 2b 98 b3 bd bf 90 70 3c c7 b3 9b bc
       -0.036112644 -0.08769258 0.014682948 -0.019006623
000280 51 68 9e 3d 95 c0 0f 3e 9f f1 c0 3d 7b 17 a0 3a
       0.077347405 0.14038308 0.094210856 0.0012214029
000290 79 81 6e 3d 06 e2 38 3b 2c 21 ff bc 0b fe 69 bd
       0.058228943 0.0028210892 -0.031143747 -0.05712704
0002a0 c9 d2 d2 bd 9e 6f 5f 3d 7d 77 b8 3d ea 91 e6 3d
       -0.1029411 0.054549806 0.090071656 0.112583
0002b0 bf 10 7d bc ba 6d af 3d d1 0b 8f bd 0d a3 ea 3d
       -0.015445887 0.085658506 -0.06984676 0.11456881
0002c0 71 cb a3 bc 5d 50 18 bd 3d 56 a0 bc 18 f8 86 bb
       -0.01999447 -0.037186015 -0.019572372 -0.0041189305
0002d0 c2 aa ad bd fe 72 41 3b e1 17 92 bd c5 1b 79 3d
       -0.08479835 0.0029518004 -0.07133461 0.0608175
0002e0 8f 7f 0f 3d f5 f6 f7 3b f1 14 8a 3b d7 86 29 3b
       0.03503376 0.0075672814 0.004213922 0.0025867724
0002f0 34 76 81 3a 85 03 d1 bd fe 4e 19 bd 64 0c 44 be
       0.0009877146 -0.102057494 -0.03742885 -0.19145352
000300 78 10 47 bd 9d d6 75 3d e8 c2 4f bd 82 b0 62 3d
       -0.04859969 0.060019124 -0.050722986 0.055344112
000310 b5 65 65 bd 6d 58 72 3c 73 2b e9 bd aa 20 c1 bd
       -0.0560052 0.01479159 -0.113852404 -0.09430058
000320 95 62 e9 3c 6e 69 20 3b 81 db 17 3d 72 35 e2 bd
       0.02848939 0.0024476903 0.03707457 -0.1104535
000330 93 a9 2d 3d 8f 22 74 3d 9a 08 42 bd 73 e8 fc 3d
       0.042398047 0.05960327 -0.047371484 0.12349024
000340 ed fc dc 3d 33 26 5c 3d 94 cf 72 3d 11 dd 99 bd
       0.10790429 0.053747367 0.059279993 -0.07512868
000350 97 47 4b bd 9f dc 18 3e 56 c6 af 3d db 91 f1 3c
       -0.04962882 0.1492791 0.085827515 0.029488495
000360 4f a7 59 3c e4 de c5 bc d7 fa dd 3c f5 41 3c 3e
       0.013284518 -0.024154134 0.027097149 0.18384536
000370 28 64 6d 3d 20 b7 6c bd be 30 0b 3d 71 b9 dc 3d
       0.057956845 -0.05779183 0.03398203 0.10777558
000380 3b 60 5b 3d 70 b4 85 3d 77 0f 96 3c 97 c6 04 3d
       0.05355857 0.06528556 0.018317921 0.032415953
000390 c6 b8 97 3d 20 4e b7 3d 15 cf ea bd c0 3e 7b bd
       0.074082896 0.08950448 -0.11465279 -0.06133914
0003a0 ea 4e fd b8 e6 4b b4 bd 49 3a 3a bc a4 ad 91 bb
       -0.00012078679 -0.08803539 -0.011366435 -0.0044457484
0003b0 ee 09 ea 3d 57 1c 8a bd 5d 1a 5d 3c c5 f9 cf 3d
       0.11427675 -0.06743687 0.013495055 0.10155062
0003c0 36 8e d3 bd 84 bb 18 3d 88 1f f5 3d 6e da 05 3d
       -0.10329859 0.037288204 0.11968905 0.032679014
0003d0 95 ab 0a 3e 7b 49 80 3d bf 5f 92 bd d2 83 62 3d
       0.13542016 0.06264015 -0.07147168 0.055301495
0003e0 18 88 20 bd 84 fd 8f 3d 40 66 d1 3c 12 d4 67 3c
       -0.03919229 0.07030776 0.025561452 0.014149683
0003f0 e2 99 0b bd f2 51 46 bd a8 8d 87 bc cf 91 72 3d
       -0.0340823 -0.048417993 -0.01654704 0.059221085
